…
[0:  1.06221 | 1.06221 | 1.06221 | 0.995 ] 
aimmu-config >>>>   >>>>  >>>>>  setup/kmeans_learning_bal.cfg
graph folder:  stats/kmeans_learning_bal
[Errno 17] File exists: 'stats/kmeans_learning_bal'
============= configurations on agent side: START ===============
Number of frames per cube:  262144
Number of processes:  1
============= configurations on agent side: END ===============
Model: "sequential"
_________________________________________________________________
 Layer (type)                Output Shape              Param #   
=================================================================
 flatten (Flatten)           (None, 128)               0         
                                                                 
 dense (Dense)               (None, 256)               33024     
                                                                 
 dense_1 (Dense)             (None, 128)               32896     
                                                                 
 dense_2 (Dense)             (None, 64)                8256      
                                                                 
 dense_3 (Dense)             (None, 32)                2080      
                                                                 
 dense_4 (Dense)             (None, 16)                528       
                                                                 
 dense_5 (Dense)             (None, 16)                272       
                                                                 
 dense_6 (Dense)             (None, 8)                 136       
                                                                 
 flatten_1 (Flatten)         (None, 8)                 0         
                                                                 
=================================================================
Total params: 77192 (301.53 KB)
Trainable params: 77192 (301.53 KB)
Non-trainable params: 0 (0.00 Byte)
_________________________________________________________________
None
[STATS] *** destructor empty ***
[STATS] *** destructor empty ***
